Bottleneck.onnx (onnx, 23786 bytes, 17 tensors)

bn1.bias f4 [16]
00000000: 0000 0000 0000 0000 0000 0000 0000 0000
00000010: 0000 0000 0000 0000 0000 0000 0000 0000
00000020: 0000 0000 0000 0000 0000 0000 0000 0000
00000030: 0000 0000 0000 0000 0000 0000 0000 0000
0.0 0.0 0.0 0.0 0.0 0.0 0.0 0.0
0.0 0.0 0.0 0.0 0.0 0.0 0.0 0.0

bn1.running_mean f4 [16]
00000000: 0000 0000 0000 0000 0000 0000 0000 0000
00000010: 0000 0000 0000 0000 0000 0000 0000 0000
00000020: 0000 0000 0000 0000 0000 0000 0000 0000
00000030: 0000 0000 0000 0000 0000 0000 0000 0000
0.0 0.0 0.0 0.0 0.0 0.0 0.0 0.0
0.0 0.0 0.0 0.0 0.0 0.0 0.0 0.0

bn1.running_var f4 [16]
00000000: 0000 803f 0000 803f 0000 803f 0000 803f
00000010: 0000 803f 0000 803f 0000 803f 0000 803f
00000020: 0000 803f 0000 803f 0000 803f 0000 803f
00000030: 0000 803f 0000 803f 0000 803f 0000 803f
1.0 1.0 1.0 1.0 1.0 1.0 1.0 1.0
1.0 1.0 1.0 1.0 1.0 1.0 1.0 1.0

bn1.weight f4 [16]
00000000: 0000 803f 0000 803f 0000 803f 0000 803f
00000010: 0000 803f 0000 803f 0000 803f 0000 803f
00000020: 0000 803f 0000 803f 0000 803f 0000 803f
00000030: 0000 803f 0000 803f 0000 803f 0000 803f
1.0 1.0 1.0 1.0 1.0 1.0 1.0 1.0
1.0 1.0 1.0 1.0 1.0 1.0 1.0 1.0

bn2.bias f4 [16]
00000000: 0000 0000 0000 0000 0000 0000 0000 0000
00000010: 0000 0000 0000 0000 0000 0000 0000 0000
00000020: 0000 0000 0000 0000 0000 0000 0000 0000
00000030: 0000 0000 0000 0000 0000 0000 0000 0000
0.0 0.0 0.0 0.0 0.0 0.0 0.0 0.0
0.0 0.0 0.0 0.0 0.0 0.0 0.0 0.0

bn2.running_mean f4 [16]
00000000: 0000 0000 0000 0000 0000 0000 0000 0000
00000010: 0000 0000 0000 0000 0000 0000 0000 0000
00000020: 0000 0000 0000 0000 0000 0000 0000 0000
00000030: 0000 0000 0000 0000 0000 0000 0000 0000
0.0 0.0 0.0 0.0 0.0 0.0 0.0 0.0
0.0 0.0 0.0 0.0 0.0 0.0 0.0 0.0

bn2.running_var f4 [16]
00000000: 0000 803f 0000 803f 0000 803f 0000 803f
00000010: 0000 803f 0000 803f 0000 803f 0000 803f
00000020: 0000 803f 0000 803f 0000 803f 0000 803f
00000030: 0000 803f 0000 803f 0000 803f 0000 803f
1.0 1.0 1.0 1.0 1.0 1.0 1.0 1.0
1.0 1.0 1.0 1.0 1.0 1.0 1.0 1.0

bn2.weight f4 [16]
00000000: 0000 803f 0000 803f 0000 803f 0000 803f
00000010: 0000 803f 0000 803f 0000 803f 0000 803f
00000020: 0000 803f 0000 803f 0000 803f 0000 803f
00000030: 0000 803f 0000 803f 0000 803f 0000 803f
1.0 1.0 1.0 1.0 1.0 1.0 1.0 1.0
1.0 1.0 1.0 1.0 1.0 1.0 1.0 1.0

bn3.bias f4 [64]
00000000: 0000 0000 0000 0000 0000 0000 0000 0000
00000010: 0000 0000 0000 0000 0000 0000 0000 0000
00000020: 0000 0000 0000 0000 0000 0000 0000 0000
00000030: 0000 0000 0000 0000 0000 0000 0000 0000
00000040: 0000 0000 0000 0000 0000 0000 0000 0000
00000050: 0000 0000 0000 0000 0000 0000 0000 0000
00000060: 0000 0000 0000 0000 0000 0000 0000 0000
00000070: 0000 0000 0000 0000 0000 0000 0000 0000
00000080: 0000 0000 0000 0000 0000 0000 0000 0000
00000090: 0000 0000 0000 0000 0000 0000 0000 0000
000000a0: 0000 0000 0000 0000 0000 0000 0000 0000
000000b0: 0000 0000 0000 0000 0000 0000 0000 0000
000000c0: 0000 0000 0000 0000 0000 0000 0000 0000
000000d0: 0000 0000 0000 0000 0000 0000 0000 0000
000000e0: 0000 0000 0000 0000 0000 0000 0000 0000
000000f0: 0000 0000 0000 0000 0000 0000 0000 0000
0.0 0.0 0.0 0.0 0.0 0.0 0.0 0.0
0.0 0.0 0.0 0.0 0.0 0.0 0.0 0.0
0.0 0.0 0.0 0.0 0.0 0.0 0.0 0.0
0.0 0.0 0.0 0.0 0.0 0.0 0.0 0.0
0.0 0.0 0.0 0.0 0.0 0.0 0.0 0.0
0.0 0.0 0.0 0.0 0.0 0.0 0.0 0.0
0.0 0.0 0.0 0.0 0.0 0.0 0.0 0.0
0.0 0.0 0.0 0.0 0.0 0.0 0.0 0.0

bn3.running_mean f4 [64]
00000000: 0000 0000 0000 0000 0000 0000 0000 0000
00000010: 0000 0000 0000 0000 0000 0000 0000 0000
00000020: 0000 0000 0000 0000 0000 0000 0000 0000
00000030: 0000 0000 0000 0000 0000 0000 0000 0000
00000040: 0000 0000 0000 0000 0000 0000 0000 0000
00000050: 0000 0000 0000 0000 0000 0000 0000 0000
00000060: 0000 0000 0000 0000 0000 0000 0000 0000
00000070: 0000 0000 0000 0000 0000 0000 0000 0000
00000080: 0000 0000 0000 0000 0000 0000 0000 0000
00000090: 0000 0000 0000 0000 0000 0000 0000 0000
000000a0: 0000 0000 0000 0000 0000 0000 0000 0000
000000b0: 0000 0000 0000 0000 0000 0000 0000 0000
000000c0: 0000 0000 0000 0000 0000 0000 0000 0000
000000d0: 0000 0000 0000 0000 0000 0000 0000 0000
000000e0: 0000 0000 0000 0000 0000 0000 0000 0000
000000f0: 0000 0000 0000 0000 0000 0000 0000 0000
0.0 0.0 0.0 0.0 0.0 0.0 0.0 0.0
0.0 0.0 0.0 0.0 0.0 0.0 0.0 0.0
0.0 0.0 0.0 0.0 0.0 0.0 0.0 0.0
0.0 0.0 0.0 0.0 0.0 0.0 0.0 0.0
0.0 0.0 0.0 0.0 0.0 0.0 0.0 0.0
0.0 0.0 0.0 0.0 0.0 0.0 0.0 0.0
0.0 0.0 0.0 0.0 0.0 0.0 0.0 0.0
0.0 0.0 0.0 0.0 0.0 0.0 0.0 0.0

bn3.running_var f4 [64]
00000000: 0000 803f 0000 803f 0000 803f 0000 803f
00000010: 0000 803f 0000 803f 0000 803f 0000 803f
00000020: 0000 803f 0000 803f 0000 803f 0000 803f
00000030: 0000 803f 0000 803f 0000 803f 0000 803f
00000040: 0000 803f 0000 803f 0000 803f 0000 803f
00000050: 0000 803f 0000 803f 0000 803f 0000 803f
00000060: 0000 803f 0000 803f 0000 803f 0000 803f
00000070: 0000 803f 0000 803f 0000 803f 0000 803f
00000080: 0000 803f 0000 803f 0000 803f 0000 803f
00000090: 0000 803f 0000 803f 0000 803f 0000 803f
000000a0: 0000 803f 0000 803f 0000 803f 0000 803f
000000b0: 0000 803f 0000 803f 0000 803f 0000 803f
000000c0: 0000 803f 0000 803f 0000 803f 0000 803f
000000d0: 0000 803f 0000 803f 0000 803f 0000 803f
000000e0: 0000 803f 0000 803f 0000 803f 0000 803f
000000f0: 0000 803f 0000 803f 0000 803f 0000 803f
1.0 1.0 1.0 1.0 1.0 1.0 1.0 1.0
1.0 1.0 1.0 1.0 1.0 1.0 1.0 1.0
1.0 1.0 1.0 1.0 1.0 1.0 1.0 1.0
1.0 1.0 1.0 1.0 1.0 1.0 1.0 1.0
1.0 1.0 1.0 1.0 1.0 1.0 1.0 1.0
1.0 1.0 1.0 1.0 1.0 1.0 1.0 1.0
1.0 1.0 1.0 1.0 1.0 1.0 1.0 1.0
1.0 1.0 1.0 1.0 1.0 1.0 1.0 1.0

bn3.weight f4 [64]
00000000: 0000 803f 0000 803f 0000 803f 0000 803f
00000010: 0000 803f 0000 803f 0000 803f 0000 803f
00000020: 0000 803f 0000 803f 0000 803f 0000 803f
00000030: 0000 803f 0000 803f 0000 803f 0000 803f
00000040: 0000 803f 0000 803f 0000 803f 0000 803f
00000050: 0000 803f 0000 803f 0000 803f 0000 803f
00000060: 0000 803f 0000 803f 0000 803f 0000 803f
00000070: 0000 803f 0000 803f 0000 803f 0000 803f
00000080: 0000 803f 0000 803f 0000 803f 0000 803f
00000090: 0000 803f 0000 803f 0000 803f 0000 803f
000000a0: 0000 803f 0000 803f 0000 803f 0000 803f
000000b0: 0000 803f 0000 803f 0000 803f 0000 803f
000000c0: 0000 803f 0000 803f 0000 803f 0000 803f
000000d0: 0000 803f 0000 803f 0000 803f 0000 803f
000000e0: 0000 803f 0000 803f 0000 803f 0000 803f
000000f0: 0000 803f 0000 803f 0000 803f 0000 803f
1.0 1.0 1.0 1.0 1.0 1.0 1.0 1.0
1.0 1.0 1.0 1.0 1.0 1.0 1.0 1.0
1.0 1.0 1.0 1.0 1.0 1.0 1.0 1.0
1.0 1.0 1.0 1.0 1.0 1.0 1.0 1.0
1.0 1.0 1.0 1.0 1.0 1.0 1.0 1.0
1.0 1.0 1.0 1.0 1.0 1.0 1.0 1.0
1.0 1.0 1.0 1.0 1.0 1.0 1.0 1.0
1.0 1.0 1.0 1.0 1.0 1.0 1.0 1.0

conv1.weight f4 [16, 64, 1, 1]
00000000: 8079 a7bc e0fa d93b 8044 18bd e02e 273c
00000010: 1644 cd3d 58f3 ddbc ccfd a43d a077 2fbc
00000020: 86e0 833d ce7e c43d f843 eabd 5c0d 60bd
00000030: 38e6 3dbd 00e9 68ba b0f8 61bc d02c 183d
00000040: 6065 aebb ea43 813d bcc5 bc3d ae4e f33d
00000050: 58a0 48bd 00bc 58bb aebf 9fbd c03a 963d
00000060: b0cc febc 7649 a43d d0aa b03c d0d2 81bc
00000070: 38db d2bc d8a6 71bd 60ab e3bb b0c9 c4bc
00000080: 005a f0bb fefb e0bd 3078 85bd f86a c83c
00000090: 567b e73d 40d1 b63c fc5b 69bd 26c6 da3d
000000a0: 1a78 bebd dcb2 b93d e0ae e9bb 0058 0abb
000000b0: d05a 33bd 80c9 b6ba 901f fabc 3823 b13c
000000c0: 900a 68bd 34e6 c0bd 3480 b1bd 984a 613d
000000d0: 9eef 97bd 2873 a83d ae35 febd 987f dd3d
000000e0: 2480 b23d 043f 1bbd 642a ecbd 802c 7f3b
000000f0: ce94 f0bd 48cf debc 1ca0 2abd 929b cb3d
00000100: 3a27 e9bd 3885 af3c 2090 de3b 345b 21bd
00000110: 4eb2 a33d ec5b 9cbd 1403 b23d 103c 92bc
00000120: a0fb 27bc 303c 3abc fcba 7ebd 20d6 f6bc
00000130: e0cc 1abd 082e 60bd c421 7a3d 5a12 fa3d
00000140: a8fc dabc b64e fb3d 6820 6c3d fa90 e5bd
00000150: 200d 7e3c c2b9 ccbd 58a4 7e3d a033 36bc
00000160: c296 e33d a4f5 113d d404 7a3d 18b4 c13d
00000170: a05c 59bc f844 813d 0477 8b3d 883b 54bd
00000180: 12d5 f13d c411 6d3d 4a7d ddbd dc13 8cbd
00000190: 40a2 29bd dcf5 d93d c0ce 0b3b 665b ff3d
000001a0: 8c17 67bd 7291 c9bd 189c 55bd b654 b63d
000001b0: aebb 8d3d 18e7 8cbc 5e8a dabd 166c 8dbd
000001c0: 60bc 05bd 0085 c6bc a4f2 0c3d d809 e4bc
000001d0: 2057 2a3c f09e 253c 7c6d dbbd 4843 673d
000001e0: a82d 1dbd 9ca2 32bd 2825 843d a66f 89bd
000001f0: c806 ca3d 60da b0bb 8024 60bb 1498 1c3d
00000200: 9afe bdbd 3c74 c6bd 1814 9c3c dccb dfbd
00000210: d855 3cbd 1eed 943d c439 7cbd a8df c8bc
00000220: ea90 8b3d e8e0 21bd 3e5a 8cbd 441a ac3d
00000230: e83e 34bd 40d2 533d cc65 0ebd 686a d8bc
00000240: d00c 5cbc ca7f fcbd c0cd 313b a890 893d
00000250: d622 e43d e459 37bd 1c7c 473d 006b aa3b
00000260: f04c 6b3c f0e4 b93d 307d d6bd 3444 ebbd
00000270: 40eb 54bc 080f c93d 08ba 72bd 04ff 62bd
00000280: 3001 19bd 30c8 a0bd 80d1 0dbb 3654 86bd
00000290: 7430 a2bd 2878 8abd f876 c23d 0ef2 bfbd
000002a0: 1ed6 a43d 680e 92bc 1299 96bd d028 5fbc
000002b0: 2011 d4bb 009b f03a 68b4 80bd 1850 c9bd
000002c0: e46d 693d e4d0 58bd b440 e2bd f096 3ebc
000002d0: 08a8 8ebd d0b0 c4bc d8e0 3cbd b6b5 f43d
000002e0: 80ef 9e3c 34cf b23d 9041 a13c a0b5 18bc
000002f0: 7c08 cf3d e0a5 f0bc 6a17 eabd c049 633c
00000300: 26f4 a2bd 106c 583d 0ed8 f8bd c692 f83d
00000310: 80f2 babd 689d e83d 52ac ef3d 5873 91bc
00000320: a062 813c 3c3f c0bd a456 9f3d 5095 95bc
00000330: f083 1ebc 70ff 5c3d f81a eebc e010 91bc
00000340: 88f5 e73c c837 283d b819 bf3c f803 92bd
00000350: 16af e9bd a02d febd 3aee d93d c881 88bc
00000360: 7c21 3ebd 70b9 7c3c 0ceb 1c3d a62e e33d
00000370: f4ed 9cbd ecf8 ecbd b202 8a3d e0fe fdbc
00000380: 00e6 85b9 8096 2e3d 6a6f 98bd b8a1 b2bd
00000390: 243d 6bbd 1059 a83c 1c87 84bd 9066 b23d
000003a0: 2028 c5bc 00ae 99bd cc77 6d3d a233 f33d
000003b0: 6086 8f3c 8065 88bd 2097 5f3c f040 47bd
000003c0: a849 6dbd e036 983d f27c fc3d 1041 34bd
000003d0: f8a7 f23d b82e 4e3d 9424 9ebd 1c92 b7bd
000003e0: 50d2 723d d40b 1dbd 725c f8bd d0e2 8c3c
000003f0: defe ca3d beb0 f93d 6a20 bebd a034 4fbd
-0.020443678 0.006652221 -0.0371747 0.010204047 0.10022752 -0.027093574 0.080562204 -0.010709673
0.06439309 0.095944986 -0.11438745 -0.05470024 -0.04636213 -0.00088848174 -0.013792202 0.03715211
-0.0053221434 0.06311782 0.09217402 0.11880241 -0.04898104 -0.003307104 -0.07800232 0.073354244
-0.031103462 0.08021824 0.021565825 -0.015847594 -0.025739297 -0.058997005 -0.0069479197 -0.024021953
-0.0073349476 -0.10985564 -0.065170646 0.02446507 0.11302821 0.022316575 -0.05697249 0.10682325
-0.09300251 0.09067318 -0.0071314424 -0.002110958 -0.043787777 -0.001394555 -0.030532628 0.021623239
-0.0566507 -0.09418908 -0.08667031 0.05500278 -0.0741875 0.08225089 -0.12412582 0.10815352
0.08715847 -0.037901893 -0.11531523 0.0038936436 -0.11747132 -0.027198449 -0.0416566 0.09941782
-0.11384435 0.021425828 0.0067920834 -0.03939362 0.07992993 -0.0763472 0.08691993 -0.017850906
-0.010252863 -0.011366889 -0.06219004 -0.0301314 -0.03779304 -0.0547314 0.061067358 0.122105315
-0.026731804 0.12270872 0.057648093 -0.11209293 0.015506059 -0.09996368 0.06216845 -0.011120707
0.11112739 0.03563465 0.06103976 0.09458178 -0.013266712 0.06311983 0.0680981 -0.051814586
0.11808218 0.05787827 -0.108149126 -0.068397254 -0.0414145 0.10642597 0.002133295 0.12468605
-0.05641894 -0.098421946 -0.052150816 0.08902876 0.06920563 -0.017200038 -0.10670923 -0.069053814
-0.03265035 -0.024233341 0.034411088 -0.027836725 0.010396749 0.010108694 -0.10714242 0.05646065
-0.03837362 -0.043612108 0.064523995 -0.067107484 0.09864575 -0.005397126 -0.0034201443 0.03823097
-0.09277077 -0.09690139 0.01905255 -0.10927555 -0.045980304 0.07271789 -0.061578527 -0.02452071
0.068147495 -0.039521128 -0.0685315 0.08403447 -0.044005305 0.051714182 -0.03476505 -0.026417926
-0.013430789 -0.12329061 0.0027130693 0.06717044 0.11139457 -0.04476346 0.048702344 0.0052007437
0.014361605 0.090768695 -0.10473096 -0.11487618 -0.012995541 0.0981732 -0.059259444 -0.055418983
-0.037354648 -0.07850683 -0.0021639764 -0.06559031 -0.07919398 -0.06761199 0.09495348 -0.0937234
0.08048652 -0.017829135 -0.073534146 -0.01362057 -0.006471768 0.001835674 -0.0628441 -0.0982973
0.056989565 -0.05293359 -0.110474974 -0.011632666 -0.06965643 -0.024010092 -0.046112865 0.11948721
0.019401312 0.08730927 0.019684583 -0.0093206465 0.1010904 -0.02937597 -0.11430247 0.013872564
-0.07956724 0.05283743 -0.12150584 0.1213737 -0.091282845 0.11358148 0.11702789 -0.017755195
0.015794098 -0.09387061 0.07780197 -0.018259674 -0.009675011 0.05395454 -0.029065594 -0.017708242
0.02831532 0.041068822 0.023327693 -0.07129663 -0.11410348 -0.12411046 0.10641141 -0.016663447
-0.046418652 0.015425071 0.038310096 0.11092882 -0.076625735 -0.115709156 0.06738795 -0.031005323
-0.000255391 0.042623997 -0.074431255 -0.08722252 -0.057431355 0.02055028 -0.064710826 0.087109685
-0.024066985 -0.07503891 0.057975575 0.118750826 0.01752013 -0.066599846 0.013646871 -0.048645914
-0.057931572 0.074323416 0.12328519 -0.04400736 0.11848444 0.050337523 -0.077218205 -0.08963415
0.0592826 -0.03834136 -0.121270075 0.017197996 0.09911893 0.12191914 -0.09283526 -0.050587296

conv2.weight f4 [16, 16, 3, 3]
00000000: c09c 173d a64c 75bd ac36 f5bc 6334 23bd
00000010: 2a88 463d edd4 983d c48c a23c 762a 00bd
00000020: b8f5 133d 2623 54bd 3337 50bd e449 88bc
00000030: 302e 0abd 4c40 f2bc 80cb 6f3c f235 433d
00000040: 185a 43bc 98a4 583c cae3 383d 6308 9e3d
00000050: 1efc a0bd 8cca d2bc 0e15 3cbd c05f f83b
00000060: d9b2 833d 9129 873d 8026 a9bb 82e3 3e3d
00000070: d8f7 74bc 80c3 de3b e1f1 a83d 5051 8abd
00000080: 7035 bfbc dec9 84bd 6707 96bd e3eb 91bd
00000090: 11fe 9e3d b0a5 fa3c 4fb4 a1bd bbac 8abd
000000a0: b62a 1d3d 0b98 4abd ca5a 6a3d bab6 81bd
000000b0: 2e33 64bd 50cb 103d 6c85 893c 3851 153c
000000c0: 0e1f 07bd c076 1bbd 7e10 67bd e0ea 05bb
000000d0: a2c0 653d 92ca 99bd 8723 a53d d1e8 8e3d
000000e0: 0055 a8bb 629e a6bd 16eb afbc 2744 a03d
000000f0: 86d5 08bd 5e09 57bd c695 8fbd b617 c3bc
00000100: 7a92 703d c377 5abd f4f9 9dbc 7a84 7e3d
00000110: d6e1 4e3d 5bf0 70bd 88a7 52bc 60b9 2cbc
00000120: 9646 94bd 5046 d9bc cbdb 8ebd b496 8abd
00000130: 5ab5 213d 80a3 56ba d261 6f3d 3926 8e3d
00000140: 5630 68bd 42cd 583d 38e2 34bd 8054 003b
00000150: a05d 29bc 6ee4 37bd 0bda 76bd 48be 1a3c
00000160: fa12 0b3d 935a 1ebd f05b f13b b68d 623d
00000170: 67b4 85bd a2dc 703d a48c aabd d620 7fbd
00000180: 4f9a a0bd 83fa 46bd 6811 02bc d296 6c3d
00000190: ba14 393d fa71 5a3d be0f 3e3d 33be 8b3d
000001a0: 15ff a23d b122 953d 7626 0c3d 2e89 a9bd
000001b0: e88c 4abc f031 f1bb 6ccf d73c 4a06 3e3d
000001c0: ec2a 95bd 883c 153c 72b5 763d 6830 52bd
000001d0: 3dd2 8c3d a244 433d d63b 793d 862d acbc
000001e0: 3385 77bd c886 52bc 2695 103d 54e0 e13c
000001f0: 4cc9 c8bc 0018 7b3b 5613 593d 2801 3c3c
00000200: 0045 9fb9 eeb5 a6bd b8e8 16bd e2bb 163d
00000210: 810a a53d fbbc 2cbd cc72 a43c cb3a 74bd
00000220: fa45 5e3d c082 1e3c 5702 a5bd f066 10bd
00000230: 3417 c83c 189d 4e3c 80f8 1a3a 40ff c53c
00000240: 8ed2 4ebd e0fa dabc 08e6 613c 58cf 173d
00000250: 2a39 593d 47b2 a1bd 60f7 97bc 0065 bc3c
00000260: 5b70 5dbd e850 19bc 0c5e 84bc e718 983d
00000270: 0861 09bc b8f0 69bd 0ac5 003d de2f 033d
00000280: 365d 7b3d e278 263d e2cf 353d 7617 6d3d
00000290: db36 07bd d01f 953c 0453 953c 06d4 03bd
000002a0: c230 5c3d c393 10bd 1e7b 6ebd cb56 a7bd
000002b0: dc4d 87bc 2669 a7bd 9c76 debc 03ce 9f3d
000002c0: ce2f 55bd 5393 3dbd bbf3 14bd 4d77 a13d
000002d0: 28f6 2d3c 1085 18bd 2838 17bd b2a3 6a3d
000002e0: 6a3d 4a3d 125d 6f3d 2430 88bc 10b6 c13b
000002f0: 9304 38bd 6b7d 0dbd 0068 3dba 1483 d63c
00000300: 638b a3bd 03c8 7fbd eda7 8a3d 94a9 f93c
00000310: 1682 0c3d 8674 4d3d 5056 ae3c c09b 82bc
00000320: 3c5d fcbc 2b46 41bd 667d 3dbd 6e54 38bd
00000330: 51cb 853d 8e61 83bd b077 b3bc 9617 0e3d
00000340: ed91 a53d f6fa 4c3d 6276 90bd cb65 a5bd
00000350: f1af a03d 0b73 9dbd 6158 993d 00d0 b6bb
00000360: 2cc9 95bc f086 903b e28b a8bd 10f9 c33b
00000370: 1899 2d3c cea6 49bd 007e 3abd 13a5 6bbd
00000380: 6ff4 9dbd 8fef 823d 7290 7b3d 805f a43b
00000390: b699 6fbd c81f 6a3c 8821 0f3c b026 f13b
000003a0: 705a 4dbd 803a 78ba 447a d93c b654 65bd
000003b0: c4c7 993c 4264 4b3d 1e0e 023d 6e2a 02bd
000003c0: 5c09 f4bc 8ba4 a33d fe35 12bd b1a6 8e3d
000003d0: d0e9 b93b 7c05 a1bc 70e3 95bc d8cd 383c
000003e0: 5810 6dbd 3e5e 14bd 214d 813d c043 f73a
000003f0: c782 a93d 3866 203d 709e 89bb 34b2 9fbc
0.037014723 -0.05988755 -0.029933296 -0.03984488 0.0484697 0.07462487 0.019842513 -0.031290494
0.036123008 -0.051791333 -0.050833892 -0.016636796 -0.033735454 -0.029571675 0.0146359205 0.047658868
-0.0119233355 0.013222836 0.04513911 0.077164434 -0.078605875 -0.025731348 -0.045918517 0.0075797737
0.06430597 0.06599725 -0.0051620603 0.046603687 -0.014951669 0.0067982078 0.0824926 -0.067537904
-0.02334091 -0.064838156 -0.07325631 -0.0712507 0.07763303 0.030596584 -0.07895719 -0.06771227
0.03837081 -0.049461406 0.05721549 -0.063336805 -0.05571287 0.035350144 0.016787253 0.009113602
-0.0329886 -0.037955046 -0.056412213 -0.0020434186 0.056091912 -0.0750934 0.08063417 0.06978
-0.005137086 -0.08135678 -0.021474402 0.07825499 -0.033406757 -0.052499168 -0.07010989 -0.023815017
0.05873344 -0.05333687 -0.019284226 0.06213806 0.050508343 -0.05882297 -0.012857325 -0.010542244
-0.07240026 -0.026522785 -0.06975516 -0.067670256 0.03947959 -0.00081878155 0.058442898 0.06940884
-0.05668672 0.052930124 -0.04416105 0.0019581616 -0.010337263 -0.044895582 -0.060266536 0.009444781
0.033953644 -0.038660597 0.007365696 0.055310927 -0.0652855 0.05880416 -0.08327606 -0.062287174
-0.07841932 -0.04857875 -0.00793872 0.05776102 0.045185782 0.053331353 0.04640173 0.06823387
0.07958809 0.072820075 0.034216367 -0.08278118 -0.012362696 -0.0073606893 0.026344024 0.046392716
-0.07283577 0.00910867 0.060231633 -0.051315695 0.06876037 0.047672875 0.06084808 -0.021017801
-0.060429763 -0.012849517 0.03529849 0.027572788 -0.024510048 0.0038313866 0.052996956 0.011474885
-0.00030378252 -0.08140169 -0.03684303 0.036800273 0.08058644 -0.042172413 0.02007427 -0.05962638
0.054265954 0.009674728 -0.08057087 -0.03525442 0.024425127 0.012610696 0.0005911663 0.024169564
-0.05049377 -0.026730955 0.013787754 0.037062973 0.05303303 -0.07895332 -0.018550575 0.02299738
-0.05406223 -0.009357668 -0.016158126 0.07426625 -0.00838495 -0.057114333 0.03143791 0.03202807
0.06136819 0.040642627 0.044387706 0.057883702 -0.0330113 0.018203646 0.018228061 -0.032184623
0.053757437 -0.035297167 -0.058222882 -0.08170851 -0.016516618 -0.08174352 -0.027156167 0.078029655
-0.052047543 -0.046283077 -0.036365252 0.07884083 0.01061777 -0.037236273 -0.03691879 0.05728502
0.049374975 0.05843837 -0.016624518 0.005911596 -0.044926237 -0.034543436 -0.0007225275 0.02618555
-0.0798557 -0.062446605 0.067703106 0.030476369 0.034303747 0.050159954 0.021281391 -0.015943408
-0.030806176 -0.047186058 -0.046262167 -0.045002393 0.0653292 -0.064150915 -0.021907657 0.034690462
0.08084474 0.050044023 -0.0705383 -0.08076056 0.07846058 -0.07687958 0.0748756 -0.0055789948
-0.018284403 0.004410617 -0.082298055 0.0059806183 0.010595582 -0.049231343 -0.04553032 -0.057530474
-0.07712638 0.063933484 0.06141705 0.0050162673 -0.0584962 0.014289804 0.008736022 0.0073593482
-0.050135076 -0.00094691664 0.026547559 -0.05598899 0.018772013 0.04965616 0.031751744 -0.031778745
-0.02978962 0.079903685 -0.035696022 0.069653876 0.0056736246 -0.019655935 -0.018296927 0.011279546
-0.057876915 -0.03622269 0.06313539 0.0018864796 0.08276897 0.039159983 -0.0041997954 -0.019494154

conv3.weight f4 [64, 16, 1, 1]
00000000: e00e 1ebe 70e1 a5bc 884a 22bd ce56 353e
00000010: 6277 593e 087c 48bd 4c9a 813d 9250 29be
00000020: d8ea 413d 94b1 25be 2470 5abe 5a73 723e
00000030: 561b 34be 86ce 3e3e a081 efbc ec14 dfbd
00000040: 7a7a 66be 2e39 1bbe 3291 56be d6ed 6f3e
00000050: f26a 683e 0efc 113e b8e7 45be b20d 78be
00000060: fcb1 a2bd 80d2 0b3e a86c a53d 00cb ca3b
00000070: 80f2 febd 7ef6 41be b0d8 b83c 1076 2ebe
00000080: 4046 5ebe 282b 5e3d 6a68 3e3e fe61 36be
00000090: 60be 1f3d 187b 4bbd 7419 603e 2abc 3dbe
000000a0: 1088 883d 28a8 66bd e284 35be 3e68 3f3e
000000b0: e406 df3d 98c4 4e3e 00ec 34be 80f2 0fbe
000000c0: f443 d6bd d83a 4cbd 66ec 7e3e a001 383c
000000d0: 90b0 283e 563d 28be 08af 17bd e87b 273e
000000e0: 24e8 44be f812 67bd 6460 823d 80c9 e13c
000000f0: 80ab da3b 10e5 fabd 2a16 413e e0a1 c7bd
00000100: c0b0 c3bd ca7e 0bbe 1091 d1bc aa2d 433e
00000110: b817 ee3d 5c15 88bd 74c7 143e d8a1 2dbd
00000120: be97 323e 3462 013e 6c29 813d 66e5 0dbe
00000130: 98ca 103e 3055 5ebd 3a88 123e f416 8d3d
00000140: e0e7 3d3d d48d 723e 18ec 523d 8443 d7bd
00000150: a4ff 6bbe 20bf dcbd 883a c63d 40f0 62bd
00000160: 2ce1 7c3e f022 393e 0034 27bc 0495 f03d
00000170: 901a ce3d 3021 b3bc 6409 e03d 6a6a 553e
00000180: 249f f33d 10a6 683e 90c1 983c c852 40bd
00000190: 08c7 2ebd 1ac2 3ebe e8fe 453d 9ca9 06be
000001a0: 24be ecbd 386e 463e c036 373e 100f 803c
000001b0: 00c1 8abc 424c 333e f8d2 14be 6649 3bbe
000001c0: 581f 0fbd 3836 4e3e 44cc 9dbd 42d0 1d3e
000001d0: 109b 27be 28d8 0dbe d441 8abd 2cb4 503e
000001e0: 2038 a63c ca2a 36be 0a72 59be 3229 08be
000001f0: 5aad 3fbe c098 bcbb 823e 58be a481 bfbd
00000200: b8fa 5d3d a834 163d ba81 7abe 2a43 00be
00000210: 20d0 47bc 188a 013d be34 2bbe 1e5a 33be
00000220: fa44 0dbe e0dd 4ebd 1404 413e 0002 edba
00000230: 8034 3bbe de4c 54be 2a9a 3fbe e248 013e
00000240: 90a0 e53d e48a c53d 4aeb 1f3e 560e 4bbe
00000250: 60da 95bd 60c5 da3c 4801 3a3d 5040 a6bc
00000260: 80c5 66bb 3428 3f3e c822 b4bd 2c1e 33be
00000270: 4854 08be 884a dd3d ac8f 45be 5c89 61be
00000280: 3c8a 66be 9cd2 003e ec41 8b3d 7ef9 203e
00000290: 7c24 efbd e0c8 36be 964a 653e 6405 603e
000002a0: e4b1 cdbd c031 fbbb c462 913d 2c91 a1bd
000002b0: a04e 583c ec77 52be 600d 93bc 3e16 4f3e
000002c0: 963c 103e 80ed 5c3d 22aa 7e3e 9805 363e
000002d0: 7ed0 283e 6cc2 a2bd 46e6 723e c800 5d3d
000002e0: 5017 d2bc 8ee6 40be a833 e43d b0b2 94bc
000002f0: 4a43 403e e41d 90bd b871 3f3d 081f c9bd
00000300: 001e d9ba c03a f83b 0496 eabd 1022 c1bd
00000310: 24f7 b8bd 2af9 6abe c401 a2bd 08f7 5cbd
00000320: 50ab 30be a857 57bd 5c76 553e a6d9 2ebe
00000330: 845a 8fbd 8602 28be 8cee c9bd 1ee7 5f3e
00000340: 4028 47bc 5ef5 6a3e d83a 21be 44e3 733e
00000350: a007 b63d a228 14be be8e 56be 9ca0 973d
00000360: 38e0 623d d8e3 d5bd 80c1 f2bd c6c5 7dbe
00000370: a896 293d 48cd 0ebe 4403 5c3e 98a3 c1bd
00000380: 48a6 47bd 4018 123e 844d e0bd 287e 40be
00000390: 4015 43bc 243a 7c3e 1a02 1cbe a89c 1e3e
000003a0: 2ea4 0c3e 6aa3 33be 000e da3d c88f db3d
000003b0: c00a 633e dcfe 9e3d 8c32 a73d e415 5d3e
000003c0: 7838 6a3e 70ee f0bd c06c 86bb 1898 ddbd
000003d0: aa97 40be 484f 7e3d 14c5 b23d ced9 7bbe
000003e0: c031 d4bb 1071 b23d 462d 703e da21 593e
000003f0: 50f4 6abd f25b 7ebe 8c54 2f3e 0e54 003e
-0.15435362 -0.020249099 -0.03962186 0.17708895 0.21236947 -0.04894641 0.06328258 -0.16534641
0.047343105 -0.16181022 -0.21331841 0.23676816 -0.17588553 0.1863347 -0.029236615 -0.108926624
-0.22507659 -0.15158531 -0.20953825 0.23430571 0.22697046 0.14256307 -0.19326675 -0.24223974
-0.07944104 0.13654518 0.08077365 0.0061887503 -0.12448597 -0.18941686 0.022564262 -0.17037225
-0.21706486 0.054240376 0.18594518 -0.17810819 0.038999915 -0.04967794 0.2188471 -0.1852881
0.06666577 -0.05631271 -0.17726472 0.18692109 0.10889986 0.20192182 -0.17668152 -0.1405735
-0.1046218 -0.049860805 0.24894866 0.011230856 0.16473603 -0.16429648 -0.037032157 0.1635586
-0.1922918 -0.056414574 0.06366041 0.027561903 0.0066732764 -0.122507215 0.18856111 -0.09747672
-0.09555197 -0.13622585 -0.025581867 0.19060388 0.11625618 -0.06644699 0.1452921 -0.042390674
0.17440698 0.12635118 0.06306729 -0.1385704 0.14139783 -0.05428046 0.14309779 0.068891436
0.04636371 0.23686916 0.051494688 -0.105109245 -0.23046738 -0.10778642 0.09679133 -0.0554049
0.24695271 0.18079734 -0.010205269 0.117471725 0.1006366 -0.021866411 0.10939291 0.20841375
0.11895588 0.22719598 0.018646985 -0.046953946 -0.04267028 -0.18628731 0.0483388 -0.13150638
-0.11559704 0.19377983 0.17891979 0.015632182 -0.016937733 0.17509559 -0.14533603 -0.18289718
-0.034942 0.2013787 -0.07704976 0.15411475 -0.16367745 -0.13851988 -0.06750837 0.2038123
0.020290434 -0.1778976 -0.21234909 -0.13296965 -0.18718472 -0.005755514 -0.21117595 -0.09350899
0.054194182 0.03667131 -0.2446355 -0.12525621 -0.012195617 0.031625837 -0.16719338 -0.17514846
-0.13795844 -0.050504565 0.18849212 -0.0018082261 -0.18281746 -0.20732448 -0.18711153 0.12625459
0.112122655 0.09645632 0.156171 -0.19829687 -0.07317042 0.026705444 0.04541138 -0.020294338
-0.0035212934 0.1866768 -0.087956965 -0.17491978 -0.13313401 0.10805231 -0.19293088 -0.22025055
-0.2251367 0.12580341 0.06799683 0.15720174 -0.11676881 -0.17850065 0.22391734 0.21877056
-0.100436956 -0.007665843 0.07098916 -0.078890175 0.013202339 -0.20553559 -0.017950714 0.20223328
0.14085612 0.053937435 0.24869588 0.17775571 0.16485783 -0.07947239 0.23720655 0.053955823
-0.025645882 -0.1883795 0.11142665 -0.018151611 0.18775669 -0.07036951 0.04673931 -0.09820372
-0.0016564727 0.007575363 -0.114543945 -0.09430325 -0.09031513 -0.22946611 -0.07910493 -0.053946525
-0.1725285 -0.05257383 0.20845932 -0.17075214 -0.06999686 -0.16407213 -0.09859952 0.21865508
-0.012155592 0.22945163 -0.15745103 0.23817164 0.08888173 -0.14468625 -0.2095289 0.07403681
0.055389613 -0.10443848 -0.118533134 -0.24782476 0.041403443 -0.13945496 0.2148562 -0.09455031
-0.048742563 0.14267063 -0.10952285 -0.18798125 -0.011906922 0.24631554 -0.15235177 0.15489447
0.13734505 -0.17542806 0.106472015 0.107207835 0.2217207 0.07763454 0.08163938 0.21590382
0.22873104 -0.11764228 -0.0041023195 -0.10820025 -0.18807855 0.062087327 0.08728996 -0.24594805
-0.006475657 0.08712971 0.2345477 0.2120432 -0.0573619 -0.24839762 0.17122096 0.12532064

sge.bias f4 [1, 64, 1, 1]
00000000: 0000 803f 0000 803f 0000 803f 0000 803f
00000010: 0000 803f 0000 803f 0000 803f 0000 803f
00000020: 0000 803f 0000 803f 0000 803f 0000 803f
00000030: 0000 803f 0000 803f 0000 803f 0000 803f
00000040: 0000 803f 0000 803f 0000 803f 0000 803f
00000050: 0000 803f 0000 803f 0000 803f 0000 803f
00000060: 0000 803f 0000 803f 0000 803f 0000 803f
00000070: 0000 803f 0000 803f 0000 803f 0000 803f
00000080: 0000 803f 0000 803f 0000 803f 0000 803f
00000090: 0000 803f 0000 803f 0000 803f 0000 803f
000000a0: 0000 803f 0000 803f 0000 803f 0000 803f
000000b0: 0000 803f 0000 803f 0000 803f 0000 803f
000000c0: 0000 803f 0000 803f 0000 803f 0000 803f
000000d0: 0000 803f 0000 803f 0000 803f 0000 803f
000000e0: 0000 803f 0000 803f 0000 803f 0000 803f
000000f0: 0000 803f 0000 803f 0000 803f 0000 803f
1.0 1.0 1.0 1.0 1.0 1.0 1.0 1.0
1.0 1.0 1.0 1.0 1.0 1.0 1.0 1.0
1.0 1.0 1.0 1.0 1.0 1.0 1.0 1.0
1.0 1.0 1.0 1.0 1.0 1.0 1.0 1.0
1.0 1.0 1.0 1.0 1.0 1.0 1.0 1.0
1.0 1.0 1.0 1.0 1.0 1.0 1.0 1.0
1.0 1.0 1.0 1.0 1.0 1.0 1.0 1.0
1.0 1.0 1.0 1.0 1.0 1.0 1.0 1.0

sge.weight f4 [1, 64, 1, 1]
00000000: 0000 0000 0000 0000 0000 0000 0000 0000
00000010: 0000 0000 0000 0000 0000 0000 0000 0000
00000020: 0000 0000 0000 0000 0000 0000 0000 0000
00000030: 0000 0000 0000 0000 0000 0000 0000 0000
00000040: 0000 0000 0000 0000 0000 0000 0000 0000
00000050: 0000 0000 0000 0000 0000 0000 0000 0000
00000060: 0000 0000 0000 0000 0000 0000 0000 0000
00000070: 0000 0000 0000 0000 0000 0000 0000 0000
00000080: 0000 0000 0000 0000 0000 0000 0000 0000
00000090: 0000 0000 0000 0000 0000 0000 0000 0000
000000a0: 0000 0000 0000 0000 0000 0000 0000 0000
000000b0: 0000 0000 0000 0000 0000 0000 0000 0000
000000c0: 0000 0000 0000 0000 0000 0000 0000 0000
000000d0: 0000 0000 0000 0000 0000 0000 0000 0000
000000e0: 0000 0000 0000 0000 0000 0000 0000 0000
000000f0: 0000 0000 0000 0000 0000 0000 0000 0000
0.0 0.0 0.0 0.0 0.0 0.0 0.0 0.0
0.0 0.0 0.0 0.0 0.0 0.0 0.0 0.0
0.0 0.0 0.0 0.0 0.0 0.0 0.0 0.0
0.0 0.0 0.0 0.0 0.0 0.0 0.0 0.0
0.0 0.0 0.0 0.0 0.0 0.0 0.0 0.0
0.0 0.0 0.0 0.0 0.0 0.0 0.0 0.0
0.0 0.0 0.0 0.0 0.0 0.0 0.0 0.0
0.0 0.0 0.0 0.0 0.0 0.0 0.0 0.0
