Bottleneck.pt (torch, 28239 bytes, 17 tensors)

weight f4 [16, 64, 1, 1]
000000 e8 1d 2f bd 8e fc f3 3d b2 80 d2 bd e8 f6 93 bc
       -0.04275313 0.11913405 -0.10278453 -0.01806207
000010 3c f8 ec bd 40 e9 bf bc 2c 9b 8f 3d f4 63 2d bd
       -0.115707844 -0.023426652 0.070120186 -0.04233165
000020 b4 7a 0d bd e0 4e 6b bd 10 33 8e bc 00 70 a0 b8
       -0.034540847 -0.057448268 -0.017358333 -7.650256e-05
000030 64 c0 33 3d a0 eb b8 3b 94 b5 7c 3d a0 81 b2 3b
       0.04388465 0.005643323 0.061696604 0.0054475814
000040 88 25 ab 3d e2 57 ba bd e0 89 37 bc 56 f5 96 bd
       0.08356768 -0.090987936 -0.011202306 -0.07371013
000050 66 6b b9 3d 30 cd 93 3c 36 1c f3 bd 80 85 bb 3c
       0.09053688 0.018042177 -0.11870615 0.022890806
000060 30 6e b7 3d 98 74 f2 bd 20 a2 ea bb ba 7a 9d bd
       0.089565635 -0.11838645 -0.00716044 -0.07689424
000070 58 6d a1 bd a8 ab 92 bc 70 be c4 bc 5a dd ac 3d
       -0.07882184 -0.017904118 -0.024016589 0.08440657
000080 78 c1 c2 bc 68 2f ad bc 7e d1 b9 bd e0 49 80 bc
       -0.023773894 -0.02114077 -0.090731606 -0.015660226
000090 5c 71 5d bd 84 32 4f bd c8 aa fa bd f8 f2 96 bc
       -0.054063186 -0.050585285 -0.12239605 -0.018426403
0000a0 82 8b f9 3d 0e 81 de 3d e8 37 f0 bc 7c 0d 66 3d
       0.12184812 0.10864459 -0.029323533 0.056165203
0000b0 ba 30 9e bd b8 d5 77 3d 54 dc 7d 3d 10 6a c2 3d
       -0.077241376 0.060506552 0.0619777 0.09492886
0000c0 98 1d ea bc ac 17 24 bd 4e 46 de 3d ca aa c6 bd
       -0.028578565 -0.040061638 0.10853253 -0.09700544
0000d0 5a ed da bd a8 88 8d 3d c6 f4 ce bd 60 d8 20 3d
       -0.106898025 0.06910831 -0.101052806 0.03926885
0000e0 2e 46 e7 bd 6c 08 69 bd 00 2c b6 3a 5a 87 b7 3d
       -0.112926826 -0.056892797 0.0013898611 0.08961363
0000f0 3e 76 df 3d c4 37 28 3d 88 4f ce bd da 23 d0 bd
       0.10911225 0.041068807 -0.10073763 -0.10163088
000100 4e 35 a7 bd 00 0f 1a 3d 10 90 bb bc 34 81 78 bd
       -0.08164464 0.03761196 -0.022895843 -0.060670093
000110 9c b0 8b 3d bc 32 6f 3d 78 b0 ab bc e2 ae e1 3d
       0.06820795 0.058397993 -0.02095817 0.110196844
000120 9e 78 d2 bd 0a c5 ed bd 70 09 68 3d 68 4f 6f bd
       -0.10276912 -0.11609848 0.056649625 -0.058425337
000130 f0 a9 ed 3c 4a 9c bb 3d 28 74 8f 3c a2 ba e4 bd
       0.029011697 0.09160669 0.017511442 -0.1116841
000140 dc 41 4a 3d 84 f4 0a bd cc 44 78 3d 7e 1b bd bd
       0.049379215 -0.033924595 0.060612485 -0.09233759
000150 9e b0 bf bd 40 ea af bd 40 f5 1b 3d 6e 34 c7 3d
       -0.09359859 -0.085896015 0.038075686 0.09726797
000160 4e 56 94 bd 60 aa 0f bc 5c 3e 88 bd c4 99 06 bd
       -0.07243024 -0.008768648 -0.06652519 -0.032861486
000170 36 a0 8f bd ee d0 fe 3d fc 13 8f 3d aa 6b 81 bd
       -0.0701298 0.12442194 0.069862336 -0.063193634
000180 30 47 3d bd a4 29 c6 bd a2 91 c9 bd 78 9e f3 bd
       -0.046210468 -0.09675911 -0.098422304 -0.1189546
000190 c0 fd a3 3d 86 b8 d5 3d 3c fe ab bd 2c ac 06 bd
       0.08007383 0.10435586 -0.08398101 -0.03287904
0001a0 a2 41 ef 3d fe e3 c3 3d 84 54 fe 3d 34 1b 95 3d
       0.1168244 0.095649704 0.12418464 0.07280579
0001b0 20 11 64 bd 9c cc 6e bd 72 08 e7 bd 20 fd dd 3b
       -0.055680394 -0.0583006 -0.11280908 0.0067745596
0001c0 40 71 af 3d 62 dc d5 bd 68 38 bb 3d d2 de b6 3d
       0.085665226 -0.10442425 0.09141618 0.08929218
0001d0 24 8b 4c bd 28 14 05 bd b0 d1 74 3c 30 dc 0a bc
       -0.049937382 -0.032489926 0.0149425715 -0.008475348
0001e0 18 2d a4 bd cc 5f bc 3d be f2 ca bd ca 4d d9 3d
       -0.080164135 0.09197959 -0.09909581 0.1061054
0001f0 20 eb 6c bd 60 1c 6f 3d 9a 83 ff 3d 50 a8 ee bc
       -0.05784142 0.05837667 0.12476273 -0.029132992
000200 d2 2b 9c bd 9c d7 b9 3d 80 cf 50 bb 00 b9 a2 bd
       -0.076255456 0.09074327 -0.003186196 -0.07945442
000210 24 0b 38 3d 80 5d 1c bb 48 72 be bd d4 c5 5f 3d
       0.0449325 -0.0023859441 -0.09299141 0.054632023
000220 70 82 09 3c e4 c7 59 3d 04 06 50 bd 28 ec c0 bc
       0.008392915 0.053169146 -0.050786987 -0.023550108
000230 74 c3 11 3d a8 89 2f bd 54 a5 fe 3d c0 c3 01 bc
       0.03558679 -0.04285589 0.124338776 -0.007920206
000240 e6 48 cf 3d de 8b 95 bd bc 0c be 3d 60 96 8a 3d
       0.10121326 -0.07302068 0.09279773 0.06766963
000250 e6 72 9b bd 5c 3a d1 3d 9c ed d5 bd e0 23 d0 bd
       -0.075902745 0.10216209 -0.10445711 -0.101630926
000260 14 3a b1 bd 50 15 90 bc 16 64 ab 3d 88 ed 9b bc
       -0.08653656 -0.017588288 0.08368699 -0.019034162
000270 d0 27 a7 bc de cc 90 bd 54 ff 54 bd 2c cc 6c bd
       -0.020404726 -0.07070325 -0.052001312 -0.0578119
000280 80 cc 44 3b 64 72 e1 bd 72 d0 be bd 42 01 fc 3d
       0.0030029118 -0.110081464 -0.093171015 0.123049274
000290 c0 a5 6b 3b 2e 2a f8 bd 78 fc 54 bd 26 ea dc 3d
       0.003595695 -0.1211742 -0.051998585 0.10786848
0002a0 60 15 a2 bc 82 d3 82 bd 0a 80 fb 3d 40 92 44 3d
       -0.019785583 -0.06387998 0.12280281 0.047991037
0002b0 90 f8 48 3c 84 e3 8c 3d 0e e7 8e 3d 20 7c 26 bd
       0.012266293 0.06879333 0.06977664 -0.04064572
0002c0 48 3a ff bc e8 26 b6 3c 1c be d9 bd a0 7d 2b bd
       -0.03115572 0.022235349 -0.106319636 -0.041867852
0002d0 60 0b dd bc 34 39 7c bd c0 ec db 3c c8 e6 02 bd
       -0.026982963 -0.06157799 0.02684629 -0.03195837
0002e0 10 6b f5 bc 36 14 a4 bd fa ce 8b bd c2 11 a6 3d
       -0.029958278 -0.080116674 -0.06826587 0.08108856
0002f0 0c 35 dc bd b8 b5 02 bd 04 8c e6 3d d4 23 93 3d
       -0.107523054 -0.03191158 0.112571746 0.07184568
000300 80 95 c2 3c 66 64 d0 bd a2 e1 e4 bd 42 7b 90 bd
       0.023752928 -0.101753995 -0.111758485 -0.070547596
000310 30 f4 42 3d be 19 ca bd 9e af 93 3d 90 de 8d bc
       0.047596157 -0.09868191 0.07211231 -0.01731804
000320 b0 8d aa 3d 08 e5 bf bc da 70 c7 bd e0 db 7e bc
       0.08327806 -0.02342464 -0.097383216 -0.015555352
000330 fe 59 e9 bd 0a 3a af bd e4 6d de bd a0 7a 02 bd
       -0.11394118 -0.08555992 -0.10860804 -0.031855226
000340 a2 ce 8f bd 9e 45 be 3d 62 06 9a bd 88 c6 77 3d
       -0.07021834 0.09290622 -0.07520749 0.06049207
000350 18 a5 ea bd d8 ce 5e 3d a6 f5 ac bd 02 26 fe 3d
       -0.114572704 0.05439648 -0.08445291 0.12409593
000360 00 7f c2 3c 50 bc cb 3c 28 e2 cd 3c 82 7e 81 3d
       0.023742199 0.024870068 0.025132254 0.063229576
000370 50 9d ed bc d8 79 82 3c ca 62 92 3d 5c 1e a0 bd
       -0.029005677 0.01592724 0.07147749 -0.078182906
000380 90 9b 43 3c d6 a5 9d 3d 40 ef 4f 3b 22 fb 87 bd
       0.011938944 0.07697646 0.0031728297 -0.06639697
000390 32 d5 e8 3d 28 dd 5a bd 6e 9f ec 3d b0 36 b1 bd
       0.11368789 -0.053433567 0.11553846 -0.08653009
0003a0 44 1c f8 bd a8 a6 15 bd 24 f5 3d bd 24 20 bd 3d
       -0.12114766 -0.03653589 -0.046376362 0.09234646
0003b0 b0 b0 00 bc 40 dd 38 3b 38 e3 8a bc 44 c0 a7 3d
       -0.007854626 0.0028208047 -0.01695405 0.08190969
0003c0 ee 43 a1 bd 90 39 28 3d 00 04 8c bc 7c 14 10 bd
       -0.07874285 0.04107052 -0.017091751 -0.035175785
0003d0 98 b4 81 3c 2a 0d 83 3d 00 4c ab ba 90 d1 f9 bc
       0.015833184 0.06398995 -0.0013068914 -0.030495435
0003e0 ea b2 db 3d 7c 71 c5 bd 9a 66 a9 3d 58 25 13 bd
       0.107274845 -0.09640786 0.08271523 -0.035924286
0003f0 c8 92 f1 bc 70 a5 81 3d ec f9 e3 bd 70 d6 14 bd
       -0.029488936 0.06330383 -0.11131653 -0.036337316

weight f4 [16]
000000 00 00 80 3f 00 00 80 3f 00 00 80 3f 00 00 80 3f
       1.0 1.0 1.0 1.0
000010 00 00 80 3f 00 00 80 3f 00 00 80 3f 00 00 80 3f
       1.0 1.0 1.0 1.0
000020 00 00 80 3f 00 00 80 3f 00 00 80 3f 00 00 80 3f
       1.0 1.0 1.0 1.0
000030 00 00 80 3f 00 00 80 3f 00 00 80 3f 00 00 80 3f
       1.0 1.0 1.0 1.0

bias f4 [16]
000000 00 00 00 00 00 00 00 00 00 00 00 00 00 00 00 00
       0.0 0.0 0.0 0.0
000010 00 00 00 00 00 00 00 00 00 00 00 00 00 00 00 00
       0.0 0.0 0.0 0.0
000020 00 00 00 00 00 00 00 00 00 00 00 00 00 00 00 00
       0.0 0.0 0.0 0.0
000030 00 00 00 00 00 00 00 00 00 00 00 00 00 00 00 00
       0.0 0.0 0.0 0.0

running_mean f4 [16]
000000 00 00 00 00 00 00 00 00 00 00 00 00 00 00 00 00
       0.0 0.0 0.0 0.0
000010 00 00 00 00 00 00 00 00 00 00 00 00 00 00 00 00
       0.0 0.0 0.0 0.0
000020 00 00 00 00 00 00 00 00 00 00 00 00 00 00 00 00
       0.0 0.0 0.0 0.0
000030 00 00 00 00 00 00 00 00 00 00 00 00 00 00 00 00
       0.0 0.0 0.0 0.0

running_var f4 [16]
000000 00 00 80 3f 00 00 80 3f 00 00 80 3f 00 00 80 3f
       1.0 1.0 1.0 1.0
000010 00 00 80 3f 00 00 80 3f 00 00 80 3f 00 00 80 3f
       1.0 1.0 1.0 1.0
000020 00 00 80 3f 00 00 80 3f 00 00 80 3f 00 00 80 3f
       1.0 1.0 1.0 1.0
000030 00 00 80 3f 00 00 80 3f 00 00 80 3f 00 00 80 3f
       1.0 1.0 1.0 1.0

weight f4 [16, 16, 3, 3]
000000 20 da 6b 3c 1d dc 92 3d e0 c0 3e 3c 47 b9 a7 bd
       0.014395267 0.071708895 0.011642665 -0.08189636
000010 6c d3 be bc f6 b5 a9 bd 9b ac 61 bd 38 cd 9b bd
       -0.023294173 -0.082866594 -0.05509625 -0.07607502
000020 36 fe df bc 60 0d 5d 3c 56 f4 29 bd b2 2a 8c bd
       -0.027342897 0.013491958 -0.041492783 -0.06844081
000030 dc ee e6 3c 2e 5a 04 bd c0 04 e2 3a 8b 7d 79 bd
       0.028190069 -0.032312565 0.0017243847 -0.060910743
000040 e0 51 48 bc 2f 5e 88 3d 00 2f 70 3b ed 41 80 3d
       -0.012226552 0.06658589 0.0036649108 0.06262574
000050 62 a6 2c 3d 00 85 e4 3a 44 ff 9b 3c 80 fa 3a bb
       0.042150863 0.0017434657 0.019042619 -0.0028530657
000060 e0 9f 7d bd d9 52 9c 3d 40 09 9e 3c 01 dd 8c 3d
       -0.061920047 0.076329894 0.01929152 0.06878091
000070 ed fe 9e 3d d6 e3 df bc 80 b4 ba 3b a0 25 71 3c
       0.07763467 -0.02733032 0.005697787 0.014718443
000080 90 c4 ab 3b 6a 03 6f 3d 20 8b 83 3c 17 f3 87 bd
       0.005241938 0.058352865 0.01605755 -0.066381626
000090 fd 5a 92 3d f0 fa 67 bd ae 45 64 bd 53 28 8f 3d
       0.07146261 -0.056635797 -0.055730514 0.06990113
0000a0 96 72 00 3d e8 7c 5a 3c ee b5 03 3d 24 25 fc 3c
       0.031359278 0.013335444 0.032155924 0.030779429
0000b0 eb 9f 35 bd 98 6d 23 3d 18 ba 24 bc 60 df 8b bd
       -0.044341963 0.03989944 -0.010054134 -0.06829715
0000c0 13 e8 3a bd a0 82 65 bb 68 98 21 3c 78 ef 4a bc
       -0.04563148 -0.0035020486 0.009862997 -0.012386195
0000d0 92 71 20 3d d2 ec 45 3d 4a d2 2e 3d c5 eb 8e 3d
       0.03917081 0.048321553 0.042681016 0.06978563
0000e0 2b f0 4f bd 88 89 5e bd f6 b4 61 3d 58 71 11 bc
       -0.05076615 -0.05433038 0.05510422 -0.008877121
0000f0 ae db 51 3d f4 8d a7 bd 20 dc 4e bd d8 bc 50 bd
       0.051234894 -0.08181372 -0.050502896 -0.050961345
000100 f4 60 a4 bd 84 91 d4 3c 8c d2 a0 3c 50 21 c7 3c
       -0.08026305 0.025948294 0.019631647 0.024307877
000110 48 68 47 3c 59 39 88 3d fe 59 9f bd d6 d2 64 bd
       0.012170859 0.06651563 -0.077808365 -0.05586513
000120 cd e6 8d 3d 61 fe 83 3d f0 78 c1 3b 04 61 b6 3c
       0.069287874 0.06445003 0.0059043095 0.022263058
000130 28 f0 14 bd 0d 74 91 3d ce b2 46 bd d2 d7 64 3d
       -0.036361843 0.07102213 -0.048510365 0.055869885
000140 ee e7 03 3d c8 9b 48 bd 45 64 8c 3d 3e a8 59 bd
       0.032203607 -0.04897669 0.068550624 -0.053138964
000150 00 0a 25 39 e2 a5 9f bd 7b 01 7a bd dd 99 a9 3d
       0.00015739352 -0.077953115 -0.061036568 0.082813
000160 60 a6 3c 3b ac 7a 97 3c eb 37 05 bd 3a b5 5b 3d
       0.002878569 0.018491112 -0.03252403 0.053639628
000170 80 7f 63 3c 96 14 d4 bc ee 6f 0c 3d 80 ea 32 3c
       0.013885379 -0.025888722 0.034286432 0.010920167
000180 03 56 89 bd f6 b7 c2 bc 4e 71 09 3d 40 a7 d5 bb
       -0.067058586 -0.02376936 0.03355532 -0.006520182
000190 e8 7a a3 bd 4c f5 fb 3c 96 32 08 3d 34 c2 96 bd
       -0.07982427 0.030756615 0.033251368 -0.0736126
0001a0 99 f6 95 3d a7 5b 92 3d e4 7f d9 3c fe b2 73 bd
       0.073224254 0.071463875 0.02655024 -0.059496872
0001b0 96 84 d0 bc a4 67 94 bc 80 ff 21 3a 91 1b 9a 3d
       -0.025453847 -0.018115826 0.0006179735 0.07524789
0001c0 06 9b c9 bc eb 7f 99 bd 54 c1 88 bd 2a 02 35 3d
       -0.024610054 -0.074951015 -0.066774994 0.044191517
0001d0 26 dd 54 bd 28 fb 65 bd a7 53 80 3d 6a b9 7f 3d
       -0.051968716 -0.056147724 0.062659554 0.062432684
0001e0 40 0f b0 3b b4 25 f3 3c f3 5d 54 bd be fd 77 bd
       0.0053729117 0.029681064 -0.05184741 -0.06054472
0001f0 fa 27 68 3d b0 ef 10 bd 08 01 03 3c 40 1e 7e bc
       0.05667875 -0.035384834 0.007995851 -0.015510142
000200 de 1f 38 bd b8 25 5b bd 70 5e ad bc 9e d7 1b 3d
       -0.044952266 -0.05350277 -0.021163195 0.038047425
000210 cd c6 91 3d 88 99 20 bd 56 ca dc bc ad 20 a7 3d
       0.07117996 -0.03920892 -0.02695195 0.08160529
000220 18 89 6d bc dd 6f 84 3d bc 3a b7 bc ef f5 80 bd
       -0.014498018 0.06466649 -0.022366874 -0.06296908
000230 34 ec a1 3c 5c f9 f7 bc 2a f2 91 bd ea 93 7a 3d
       0.01976595 -0.030270271 -0.07126267 0.061176218
000240 98 61 31 3c cb 9e 13 bd 00 de 4f bb fa 98 65 3d
       0.010826491 -0.03604011 -0.0031718016 0.056054093
000250 58 2f 4a 3c ba 0e a1 bd 38 57 05 bd c5 b9 92 3d
       0.012340389 -0.07864137 -0.03255388 0.07164339
000260 a3 5c 25 bd b2 48 2b 3d fa fd a1 bd b4 c5 94 bd
       -0.04037155 0.041817375 -0.0790977 -0.072642714
000270 df cb a7 bd 10 01 8d bc ed cd 87 3d 73 56 84 3d
       -0.08193182 -0.01721242 0.06631074 0.064618014
000280 e0 b8 5f 3c 20 07 88 bc 30 00 66 bd 1d 29 81 3d
       0.0136549175 -0.01660496 -0.056152523 0.0630667
000290 90 39 95 bd 4e c9 45 bd 6e 9b 99 bd 56 f4 d7 bc
       -0.0728637 -0.048287682 -0.07500349 -0.026361626
0002a0 80 d5 98 bb 96 81 a7 bd 88 30 00 3c 06 7a 74 3d
       -0.004664123 -0.081790134 0.007824071 0.059686683
0002b0 60 0b 47 3c 70 c3 21 3d c0 22 17 3d d8 31 2a bd
       0.012148708 0.039493024 0.036898375 -0.04155144
0002c0 74 96 93 bc 31 c0 88 3d 4e 11 04 3d c0 e8 f9 3a
       -0.018016078 0.066772826 0.032243066 0.0019066557
0002d0 b4 f1 94 3c 42 66 6f 3d 00 8b e4 39 fa b6 6a 3d
       0.01818166 0.05844713 0.00043591112 0.057303406
0002e0 c0 0b 67 3c 1e 03 34 bd 18 f6 33 bc b8 37 34 3c
       0.0141019225 -0.043948285 -0.010983966 0.0109996125
0002f0 00 96 39 3b 88 77 54 bc c8 8c 1a bc 2c a2 97 3c
       0.0028318167 -0.012967952 -0.009432979 0.018509947
000300 29 f3 a8 3d 8d 8b 9e 3d d5 3a 99 3d 2e cc 58 3d
       0.08249504 0.07741461 0.074819244 0.052929096
000310 70 19 35 bd 88 01 58 3c 0e 2d 5e 3d 00 32 89 bd
       -0.044213712 0.013183959 0.054242186 -0.0669899
000320 38 71 6b bc 27 30 88 3d e0 be ba bc 4d 0d a4 3d
       -0.014370255 0.06649809 -0.022796094 0.080103494
000330 f0 40 9a bc 05 3a 8a 3d 62 bc 84 bd f1 65 a0 3d
       -0.018829793 0.067493476 -0.06481244 0.07831944
000340 a0 de 1f bd 6c ba ec 3c ba dc 98 bd c0 a3 56 3c
       -0.03903067 0.028897487 -0.07463975 0.0131005645
000350 d8 3e 07 3d 12 90 75 3d 3d 6a 86 3d 30 28 24 3d
       0.033018917 0.05995185 0.06563232 0.04007739
000360 49 30 8a 3d c0 53 be bb 78 ff 9c bd 56 6c 87 bd
       0.06747491 -0.0058083236 -0.07665914 -0.0661246
000370 76 86 00 bd 5c a0 a6 bc fa 28 51 3d f8 00 3b bd
       -0.031378232 -0.020340137 0.05106447 -0.04565522
000380 cc 24 f9 bc 3e 30 0f bd 22 3a 2a 3d d2 38 49 3d
       -0.030413054 -0.034958117 0.041559346 0.049126454
000390 86 6b 04 3d ee 17 64 bd bc 08 f3 bc c2 08 a4 bd
       0.032329105 -0.055686884 -0.02966725 -0.08009483
0003a0 53 2e 76 bd 63 c9 78 bd f7 b6 a0 3d a9 cc 8b 3d
       -0.060102772 -0.060738932 0.07847398 0.06826145
0003b0 88 ac 31 3c b6 a9 3b bd f6 99 3f bd 02 70 a4 bd
       0.010844357 -0.045816146 -0.046777688 -0.08029176
0003c0 ae 2f 47 bd e9 2c 89 3d b0 41 a1 3b e0 fb 39 bd
       -0.048629455 0.06698019 0.0049211606 -0.045406222
0003d0 af 3f 93 3d 74 28 d9 3c c4 a6 a6 bd a0 81 0c 3b
       0.07189881 0.026508547 -0.08137277 0.0021439567
0003e0 e8 64 57 bc b6 f7 ed bc cb ac 40 bd e3 53 94 3d
       -0.0131466165 -0.029048782 -0.04703979 0.072425626
0003f0 aa ba 5f 3d 88 1f 09 bc 20 76 a1 3c e6 c2 a0 bd
       0.054621376 -0.008369334 0.019709647 -0.07849674

weight f4 [16]
000000 00 00 80 3f 00 00 80 3f 00 00 80 3f 00 00 80 3f
       1.0 1.0 1.0 1.0
000010 00 00 80 3f 00 00 80 3f 00 00 80 3f 00 00 80 3f
       1.0 1.0 1.0 1.0
000020 00 00 80 3f 00 00 80 3f 00 00 80 3f 00 00 80 3f
       1.0 1.0 1.0 1.0
000030 00 00 80 3f 00 00 80 3f 00 00 80 3f 00 00 80 3f
       1.0 1.0 1.0 1.0

bias f4 [16]
000000 00 00 00 00 00 00 00 00 00 00 00 00 00 00 00 00
       0.0 0.0 0.0 0.0
000010 00 00 00 00 00 00 00 00 00 00 00 00 00 00 00 00
       0.0 0.0 0.0 0.0
000020 00 00 00 00 00 00 00 00 00 00 00 00 00 00 00 00
       0.0 0.0 0.0 0.0
000030 00 00 00 00 00 00 00 00 00 00 00 00 00 00 00 00
       0.0 0.0 0.0 0.0

running_mean f4 [16]
000000 00 00 00 00 00 00 00 00 00 00 00 00 00 00 00 00
       0.0 0.0 0.0 0.0
000010 00 00 00 00 00 00 00 00 00 00 00 00 00 00 00 00
       0.0 0.0 0.0 0.0
000020 00 00 00 00 00 00 00 00 00 00 00 00 00 00 00 00
       0.0 0.0 0.0 0.0
000030 00 00 00 00 00 00 00 00 00 00 00 00 00 00 00 00
       0.0 0.0 0.0 0.0

running_var f4 [16]
000000 00 00 80 3f 00 00 80 3f 00 00 80 3f 00 00 80 3f
       1.0 1.0 1.0 1.0
000010 00 00 80 3f 00 00 80 3f 00 00 80 3f 00 00 80 3f
       1.0 1.0 1.0 1.0
000020 00 00 80 3f 00 00 80 3f 00 00 80 3f 00 00 80 3f
       1.0 1.0 1.0 1.0
000030 00 00 80 3f 00 00 80 3f 00 00 80 3f 00 00 80 3f
       1.0 1.0 1.0 1.0

weight f4 [64, 16, 1, 1]
000000 74 ed fc 3d c8 d2 f3 bd ee 21 75 3e e8 2f 09 be
       0.12349978 -0.11905438 0.23938724 -0.13397181
000010 ca 3f 6f be d0 15 72 be 1c 1c 58 3e 5c 9f ef bd
       -0.23364177 -0.23641133 0.21104473 -0.11700317
000020 ca c9 21 be e4 88 1e 3e 16 55 67 3e 24 12 04 be
       -0.15799633 0.15481907 0.22591051 -0.12897545
000030 3c 1d 0c be 80 79 44 3b 98 78 eb 3d 86 10 05 be
       -0.13683027 0.0029979646 0.11497611 -0.12994584
000040 08 19 0b be 00 d8 3b 3b f8 49 04 bd 60 75 26 3d
       -0.13583767 0.0028662682 -0.032297105 0.04063928
000050 0c 29 49 3e 1c cf ee 3d a0 9b 41 be 38 8f 4c bd
       0.19644564 0.11660597 -0.18907022 -0.04994127
000060 00 e8 9a b9 12 e5 52 3e c0 18 44 3d ac 3f 60 be
       -0.00029546022 0.20595196 0.047875166 -0.21899289
000070 48 38 d3 bd 54 80 a2 3d b8 b7 13 3e 10 d5 76 3d
       -0.10313469 0.07934633 0.14425552 0.060261786
000080 c0 de 33 bd f8 cd 12 3d 52 fa 07 be 0a 61 0f 3e
       -0.043913603 0.03584096 -0.13279083 0.14001861
000090 32 05 1e be c4 3c 5a 3e a0 6e 46 3c 38 ca 1b 3d
       -0.1543167 0.21312243 0.012111336 0.038034648
0000a0 e0 f2 1d 3e 8c 51 ae 3d 1a 05 08 3e a0 41 5a 3e
       0.1542468 0.085116476 0.13283196 0.21314096
0000b0 d2 96 06 be b4 e6 82 bd b0 07 8c 3c 8e 38 10 3e
       -0.13143471 -0.063916594 0.01709351 0.14084074
0000c0 d8 3c 68 3d c8 97 61 3d 00 32 22 3c e8 22 2d bd
       0.05669865 0.05507639 0.009899616 -0.042269617
0000d0 30 e1 fe 3c be 32 61 3e ec 3f 95 bd c0 2b b2 3d
       0.031113237 0.21992013 -0.07287583 0.08699751
0000e0 84 2c 6e be aa 9b 3b 3e dc e0 bc 3d ec e3 49 3e
       -0.23259169 0.183211 0.09222576 0.19715852
0000f0 1c be 37 3e 92 d8 4c 3e a8 f1 0d 3e 44 af 37 be
       0.17943615 0.2000449 0.13861716 -0.17937952
000100 12 bb 3a 3e 6c 18 5c 3e 58 97 35 bd 24 7c 57 3e
       0.18235424 0.21493691 -0.044333786 0.2104345
000110 c8 e4 f4 3d 1c 88 16 be 24 af ef bd 1c 89 a0 bd
       0.11957699 -0.14700359 -0.11703327 -0.078386515
000120 b0 c4 52 bd 5e ce 12 be a2 51 7f 3e 14 35 ad bd
       -0.051457107 -0.14336535 0.24933484 -0.084573895
000130 30 5e 86 bd 76 a3 19 be e0 2f 63 bd 10 3a 73 3d
       -0.065609336 -0.15003762 -0.05546558 0.059381545
000140 28 36 64 3d f4 99 79 be 4c fd a8 bd d0 e5 29 3d
       0.05571571 -0.24375135 -0.082514375 0.041478932
000150 90 a3 21 3d e2 1b 3d be ce bc 6f be ac 4f b1 3d
       0.039462626 -0.18467668 -0.23411867 0.08657774
000160 14 d4 45 be 42 9b 38 be 1a 60 4b be 64 52 81 3d
       -0.19319183 -0.18027976 -0.19860879 0.06314543
000170 44 af 18 3e 8c ef 29 3e 2a 5c 1c be 98 88 41 3e
       0.14910609 0.16595286 -0.15269533 0.18899763
000180 6c 73 3c be 20 e9 93 bc 3c 73 41 be a0 74 59 bc
       -0.18403405 -0.018055499 -0.18891615 -0.0132724345
000190 e2 09 4a 3e 50 05 94 3c 94 47 b3 3d 28 7c fe bd
       0.19730332 0.01806894 0.08753887 -0.12426025
0001a0 50 7e a2 bc ec f9 6d be b8 9e dc bd 48 db a0 3d
       -0.019835621 -0.23239869 -0.10772461 0.078543246
0001b0 7c 7d 2c 3e 80 88 b6 3c 34 16 23 be 04 9a 19 be
       0.16844743 0.022281885 -0.15926439 -0.15000159
0001c0 4e 00 48 be cc e4 28 3e 26 98 2e 3e a0 21 b3 bc
       -0.19531366 0.16493529 0.17050228 -0.02186662
0001d0 80 6a e1 bd 30 3b a5 3c 50 91 28 3d 64 58 ab bd
       -0.110066414 0.020169824 0.041154206 -0.083664685
0001e0 00 6b c0 3a a8 2b 12 be 1e 7f 71 be 4e b7 22 3e
       0.0014680326 -0.14274466 -0.23583648 0.15890238
0001f0 50 97 43 be 28 b4 b0 bd d0 2a c8 bc e8 d7 68 be
       -0.1910069 -0.08628112 -0.024434477 -0.22738612
000200 e0 09 cf 3c e0 28 59 be 90 cf a7 3c 40 b3 da 3c
       0.025273263 -0.21206999 0.020484716 0.026696801
000210 6a 9a 61 be 28 92 a1 3d 20 ac f8 bd 70 9e a5 3d
       -0.2203156 0.07889205 -0.12142205 0.0808686
000220 46 24 7b be a0 9b 27 3c 16 5f 22 3e 4c e5 08 3e
       -0.24525556 0.010229975 0.15856585 0.1336872
000230 00 ea aa 3c ba e6 21 3e c8 17 71 be 06 e8 09 be
       0.020863533 0.15810671 -0.23544228 -0.13467416
000240 50 ac ae 3d a4 64 30 be 08 28 d1 3d 72 c5 5a 3e
       0.0852896 -0.17225891 0.102127135 0.21364382
000250 44 48 94 bd 0a 7d 7e be 92 15 1a be c8 12 8b 3d
       -0.07240346 -0.24852386 -0.15047291 0.067906916
000260 62 77 13 be 3c 83 52 be dc 7f 1e be a2 1b 29 be
       -0.1440101 -0.20557874 -0.15478462 -0.16514447
000270 a8 f2 75 bd 9c 07 09 3e 90 6c 41 bd a4 14 c9 3d
       -0.06004587 0.13381809 -0.047222674 0.0981839
000280 36 31 39 3e 38 e5 fb bd e0 93 a6 bd c0 a4 1e 3e
       0.18085179 -0.122995794 -0.08133674 0.15492535
000290 5a 9d 25 3e 14 98 d5 bd 28 5c 9f 3d 40 33 96 3d
       0.16173306 -0.10429397 0.07781249 0.07333994
0002a0 80 88 52 be d0 15 50 3e 4e a4 34 be ac 1e e0 3d
       -0.20559883 0.20320821 -0.17640802 0.1094335
0002b0 f4 b7 84 3d 80 61 90 bd 30 c4 9f bd 5a 58 36 be
       0.06480399 -0.07049847 -0.07801092 -0.17807141
0002c0 f8 e2 ff 3d d8 d1 67 3e d0 68 48 bd c2 47 3f 3e
       0.12494463 0.22638643 -0.048928082 0.18679717
0002d0 c6 3f 55 be c4 da cd bd 02 03 3b 3e 60 fd 7e bc
       -0.20825109 -0.10051492 0.18262866 -0.015563339
0002e0 6a 4a 33 be 80 a3 02 3d f8 95 8f 3d e8 1e 70 3e
       -0.17508855 0.031894207 0.07011026 0.2344929
0002f0 a6 24 55 3e d0 2b 3d 3d ec 37 df 3d 90 e7 45 3e
       0.20814762 0.04618436 0.10899338 0.19326615
000300 3c 41 60 3e 78 a5 bc 3d 00 92 64 3c ec 6a a7 bd
       0.21899885 0.09211248 0.013950825 -0.081746906
000310 7c 38 fa 3d e0 0e dd bd ec a7 ea bd 28 c9 76 bd
       0.12217805 -0.10793853 -0.1145781 -0.06025043
000320 c0 2e 4f bd 48 14 a6 bd b4 de 2b 3e c0 ca 32 3e
       -0.050581694 -0.08109337 0.16784173 0.17460155
000330 68 87 78 be e0 3e 68 be 38 9d 11 bd c0 75 86 bc
       -0.24270403 -0.22680235 -0.035550326 -0.01641357
000340 60 10 35 3d 66 0c 18 be d8 a2 78 bd 6c fa 27 be
       0.04420507 -0.1484848 -0.060702175 -0.16404122
000350 b8 c0 26 3e 12 8d 1e 3e e8 f2 1a bd 5a c8 5d be
       0.16284454 0.15483502 -0.03782931 -0.2165846
000360 c0 83 ec 3d 44 4f 05 be 4c e7 7f 3e 1c 3b a2 3d
       0.11548567 -0.13018519 0.24990577 0.079214305
000370 28 54 93 bd 54 81 8b bd 5e 9c 75 3e 9e db 70 be
       -0.07193786 -0.06811777 0.2398543 -0.23521277
000380 1e 7a 18 be ca 0b 6d 3e 4c 72 1e be 6c a8 13 be
       -0.14890334 0.23149028 -0.15473288 -0.14419717
000390 04 b5 74 be 50 e8 4b 3e b2 af 1e 3e 1a 34 62 3e
       -0.23897177 0.19912839 0.1549671 0.22090188
0003a0 c6 8c 52 3e 50 b3 0a be 1c fd dc bd 1c c7 78 be
       0.20561513 -0.13544965 -0.10790464 -0.24294704
0003b0 40 d7 b5 3d 18 46 7f 3e 80 21 1e bd 5a 83 6f 3e
       0.08878946 0.24929082 -0.038606167 0.2338995
0003c0 ba 12 18 be b4 b3 58 be f0 89 d5 bd 48 bc b8 3d
       -0.14850894 -0.21162301 -0.104267 0.09020287
0003d0 00 41 cc 3a 0c 31 20 be 30 5b 03 3d 90 0f 0b be
       0.0015583336 -0.1564371 0.032069385 -0.13580155
0003e0 38 d8 4b bd 16 15 4d be 64 ce 73 be e8 a7 56 bd
       -0.04976675 -0.20027575 -0.238092 -0.05240622
0003f0 08 d0 c6 bd 42 71 5e be b0 00 86 bc 50 9a bf bc
       -0.097076476 -0.21722892 -0.01635775 -0.023389012

weight f4 [64]
000000 00 00 80 3f 00 00 80 3f 00 00 80 3f 00 00 80 3f
       1.0 1.0 1.0 1.0
000010 00 00 80 3f 00 00 80 3f 00 00 80 3f 00 00 80 3f
       1.0 1.0 1.0 1.0
000020 00 00 80 3f 00 00 80 3f 00 00 80 3f 00 00 80 3f
       1.0 1.0 1.0 1.0
000030 00 00 80 3f 00 00 80 3f 00 00 80 3f 00 00 80 3f
       1.0 1.0 1.0 1.0
000040 00 00 80 3f 00 00 80 3f 00 00 80 3f 00 00 80 3f
       1.0 1.0 1.0 1.0
000050 00 00 80 3f 00 00 80 3f 00 00 80 3f 00 00 80 3f
       1.0 1.0 1.0 1.0
000060 00 00 80 3f 00 00 80 3f 00 00 80 3f 00 00 80 3f
       1.0 1.0 1.0 1.0
000070 00 00 80 3f 00 00 80 3f 00 00 80 3f 00 00 80 3f
       1.0 1.0 1.0 1.0
000080 00 00 80 3f 00 00 80 3f 00 00 80 3f 00 00 80 3f
       1.0 1.0 1.0 1.0
000090 00 00 80 3f 00 00 80 3f 00 00 80 3f 00 00 80 3f
       1.0 1.0 1.0 1.0
0000a0 00 00 80 3f 00 00 80 3f 00 00 80 3f 00 00 80 3f
       1.0 1.0 1.0 1.0
0000b0 00 00 80 3f 00 00 80 3f 00 00 80 3f 00 00 80 3f
       1.0 1.0 1.0 1.0
0000c0 00 00 80 3f 00 00 80 3f 00 00 80 3f 00 00 80 3f
       1.0 1.0 1.0 1.0
0000d0 00 00 80 3f 00 00 80 3f 00 00 80 3f 00 00 80 3f
       1.0 1.0 1.0 1.0
0000e0 00 00 80 3f 00 00 80 3f 00 00 80 3f 00 00 80 3f
       1.0 1.0 1.0 1.0
0000f0 00 00 80 3f 00 00 80 3f 00 00 80 3f 00 00 80 3f
       1.0 1.0 1.0 1.0

bias f4 [64]
000000 00 00 00 00 00 00 00 00 00 00 00 00 00 00 00 00
       0.0 0.0 0.0 0.0
000010 00 00 00 00 00 00 00 00 00 00 00 00 00 00 00 00
       0.0 0.0 0.0 0.0
000020 00 00 00 00 00 00 00 00 00 00 00 00 00 00 00 00
       0.0 0.0 0.0 0.0
000030 00 00 00 00 00 00 00 00 00 00 00 00 00 00 00 00
       0.0 0.0 0.0 0.0
000040 00 00 00 00 00 00 00 00 00 00 00 00 00 00 00 00
       0.0 0.0 0.0 0.0
000050 00 00 00 00 00 00 00 00 00 00 00 00 00 00 00 00
       0.0 0.0 0.0 0.0
000060 00 00 00 00 00 00 00 00 00 00 00 00 00 00 00 00
       0.0 0.0 0.0 0.0
000070 00 00 00 00 00 00 00 00 00 00 00 00 00 00 00 00
       0.0 0.0 0.0 0.0
000080 00 00 00 00 00 00 00 00 00 00 00 00 00 00 00 00
       0.0 0.0 0.0 0.0
000090 00 00 00 00 00 00 00 00 00 00 00 00 00 00 00 00
       0.0 0.0 0.0 0.0
0000a0 00 00 00 00 00 00 00 00 00 00 00 00 00 00 00 00
       0.0 0.0 0.0 0.0
0000b0 00 00 00 00 00 00 00 00 00 00 00 00 00 00 00 00
       0.0 0.0 0.0 0.0
0000c0 00 00 00 00 00 00 00 00 00 00 00 00 00 00 00 00
       0.0 0.0 0.0 0.0
0000d0 00 00 00 00 00 00 00 00 00 00 00 00 00 00 00 00
       0.0 0.0 0.0 0.0
0000e0 00 00 00 00 00 00 00 00 00 00 00 00 00 00 00 00
       0.0 0.0 0.0 0.0
0000f0 00 00 00 00 00 00 00 00 00 00 00 00 00 00 00 00
       0.0 0.0 0.0 0.0

running_mean f4 [64]
000000 00 00 00 00 00 00 00 00 00 00 00 00 00 00 00 00
       0.0 0.0 0.0 0.0
000010 00 00 00 00 00 00 00 00 00 00 00 00 00 00 00 00
       0.0 0.0 0.0 0.0
000020 00 00 00 00 00 00 00 00 00 00 00 00 00 00 00 00
       0.0 0.0 0.0 0.0
000030 00 00 00 00 00 00 00 00 00 00 00 00 00 00 00 00
       0.0 0.0 0.0 0.0
000040 00 00 00 00 00 00 00 00 00 00 00 00 00 00 00 00
       0.0 0.0 0.0 0.0
000050 00 00 00 00 00 00 00 00 00 00 00 00 00 00 00 00
       0.0 0.0 0.0 0.0
000060 00 00 00 00 00 00 00 00 00 00 00 00 00 00 00 00
       0.0 0.0 0.0 0.0
000070 00 00 00 00 00 00 00 00 00 00 00 00 00 00 00 00
       0.0 0.0 0.0 0.0
000080 00 00 00 00 00 00 00 00 00 00 00 00 00 00 00 00
       0.0 0.0 0.0 0.0
000090 00 00 00 00 00 00 00 00 00 00 00 00 00 00 00 00
       0.0 0.0 0.0 0.0
0000a0 00 00 00 00 00 00 00 00 00 00 00 00 00 00 00 00
       0.0 0.0 0.0 0.0
0000b0 00 00 00 00 00 00 00 00 00 00 00 00 00 00 00 00
       0.0 0.0 0.0 0.0
0000c0 00 00 00 00 00 00 00 00 00 00 00 00 00 00 00 00
       0.0 0.0 0.0 0.0
0000d0 00 00 00 00 00 00 00 00 00 00 00 00 00 00 00 00
       0.0 0.0 0.0 0.0
0000e0 00 00 00 00 00 00 00 00 00 00 00 00 00 00 00 00
       0.0 0.0 0.0 0.0
0000f0 00 00 00 00 00 00 00 00 00 00 00 00 00 00 00 00
       0.0 0.0 0.0 0.0

running_var f4 [64]
000000 00 00 80 3f 00 00 80 3f 00 00 80 3f 00 00 80 3f
       1.0 1.0 1.0 1.0
000010 00 00 80 3f 00 00 80 3f 00 00 80 3f 00 00 80 3f
       1.0 1.0 1.0 1.0
000020 00 00 80 3f 00 00 80 3f 00 00 80 3f 00 00 80 3f
       1.0 1.0 1.0 1.0
000030 00 00 80 3f 00 00 80 3f 00 00 80 3f 00 00 80 3f
       1.0 1.0 1.0 1.0
000040 00 00 80 3f 00 00 80 3f 00 00 80 3f 00 00 80 3f
       1.0 1.0 1.0 1.0
000050 00 00 80 3f 00 00 80 3f 00 00 80 3f 00 00 80 3f
       1.0 1.0 1.0 1.0
000060 00 00 80 3f 00 00 80 3f 00 00 80 3f 00 00 80 3f
       1.0 1.0 1.0 1.0
000070 00 00 80 3f 00 00 80 3f 00 00 80 3f 00 00 80 3f
       1.0 1.0 1.0 1.0
000080 00 00 80 3f 00 00 80 3f 00 00 80 3f 00 00 80 3f
       1.0 1.0 1.0 1.0
000090 00 00 80 3f 00 00 80 3f 00 00 80 3f 00 00 80 3f
       1.0 1.0 1.0 1.0
0000a0 00 00 80 3f 00 00 80 3f 00 00 80 3f 00 00 80 3f
       1.0 1.0 1.0 1.0
0000b0 00 00 80 3f 00 00 80 3f 00 00 80 3f 00 00 80 3f
       1.0 1.0 1.0 1.0
0000c0 00 00 80 3f 00 00 80 3f 00 00 80 3f 00 00 80 3f
       1.0 1.0 1.0 1.0
0000d0 00 00 80 3f 00 00 80 3f 00 00 80 3f 00 00 80 3f
       1.0 1.0 1.0 1.0
0000e0 00 00 80 3f 00 00 80 3f 00 00 80 3f 00 00 80 3f
       1.0 1.0 1.0 1.0
0000f0 00 00 80 3f 00 00 80 3f 00 00 80 3f 00 00 80 3f
       1.0 1.0 1.0 1.0

weight f4 [1, 64, 1, 1]
000000 00 00 00 00 00 00 00 00 00 00 00 00 00 00 00 00
       0.0 0.0 0.0 0.0
000010 00 00 00 00 00 00 00 00 00 00 00 00 00 00 00 00
       0.0 0.0 0.0 0.0
000020 00 00 00 00 00 00 00 00 00 00 00 00 00 00 00 00
       0.0 0.0 0.0 0.0
000030 00 00 00 00 00 00 00 00 00 00 00 00 00 00 00 00
       0.0 0.0 0.0 0.0
000040 00 00 00 00 00 00 00 00 00 00 00 00 00 00 00 00
       0.0 0.0 0.0 0.0
000050 00 00 00 00 00 00 00 00 00 00 00 00 00 00 00 00
       0.0 0.0 0.0 0.0
000060 00 00 00 00 00 00 00 00 00 00 00 00 00 00 00 00
       0.0 0.0 0.0 0.0
000070 00 00 00 00 00 00 00 00 00 00 00 00 00 00 00 00
       0.0 0.0 0.0 0.0
000080 00 00 00 00 00 00 00 00 00 00 00 00 00 00 00 00
       0.0 0.0 0.0 0.0
000090 00 00 00 00 00 00 00 00 00 00 00 00 00 00 00 00
       0.0 0.0 0.0 0.0
0000a0 00 00 00 00 00 00 00 00 00 00 00 00 00 00 00 00
       0.0 0.0 0.0 0.0
0000b0 00 00 00 00 00 00 00 00 00 00 00 00 00 00 00 00
       0.0 0.0 0.0 0.0
0000c0 00 00 00 00 00 00 00 00 00 00 00 00 00 00 00 00
       0.0 0.0 0.0 0.0
0000d0 00 00 00 00 00 00 00 00 00 00 00 00 00 00 00 00
       0.0 0.0 0.0 0.0
0000e0 00 00 00 00 00 00 00 00 00 00 00 00 00 00 00 00
       0.0 0.0 0.0 0.0
0000f0 00 00 00 00 00 00 00 00 00 00 00 00 00 00 00 00
       0.0 0.0 0.0 0.0

bias f4 [1, 64, 1, 1]
000000 00 00 80 3f 00 00 80 3f 00 00 80 3f 00 00 80 3f
       1.0 1.0 1.0 1.0
000010 00 00 80 3f 00 00 80 3f 00 00 80 3f 00 00 80 3f
       1.0 1.0 1.0 1.0
000020 00 00 80 3f 00 00 80 3f 00 00 80 3f 00 00 80 3f
       1.0 1.0 1.0 1.0
000030 00 00 80 3f 00 00 80 3f 00 00 80 3f 00 00 80 3f
       1.0 1.0 1.0 1.0
000040 00 00 80 3f 00 00 80 3f 00 00 80 3f 00 00 80 3f
       1.0 1.0 1.0 1.0
000050 00 00 80 3f 00 00 80 3f 00 00 80 3f 00 00 80 3f
       1.0 1.0 1.0 1.0
000060 00 00 80 3f 00 00 80 3f 00 00 80 3f 00 00 80 3f
       1.0 1.0 1.0 1.0
000070 00 00 80 3f 00 00 80 3f 00 00 80 3f 00 00 80 3f
       1.0 1.0 1.0 1.0
000080 00 00 80 3f 00 00 80 3f 00 00 80 3f 00 00 80 3f
       1.0 1.0 1.0 1.0
000090 00 00 80 3f 00 00 80 3f 00 00 80 3f 00 00 80 3f
       1.0 1.0 1.0 1.0
0000a0 00 00 80 3f 00 00 80 3f 00 00 80 3f 00 00 80 3f
       1.0 1.0 1.0 1.0
0000b0 00 00 80 3f 00 00 80 3f 00 00 80 3f 00 00 80 3f
       1.0 1.0 1.0 1.0
0000c0 00 00 80 3f 00 00 80 3f 00 00 80 3f 00 00 80 3f
       1.0 1.0 1.0 1.0
0000d0 00 00 80 3f 00 00 80 3f 00 00 80 3f 00 00 80 3f
       1.0 1.0 1.0 1.0
0000e0 00 00 80 3f 00 00 80 3f 00 00 80 3f 00 00 80 3f
       1.0 1.0 1.0 1.0
0000f0 00 00 80 3f 00 00 80 3f 00 00 80 3f 00 00 80 3f
       1.0 1.0 1.0 1.0
